PINN.pt (torch, 19583 bytes, 5 tensors)

hidden_layer1.weight f4 [64, 2]
1.3152233 0.09766606 -0.18513583 5.159911 -3.1828845 3.6922326 -2.0571783 -3.8540351
-2.8979404 -0.07458347 1.6404489 0.040199373 -0.39833054 4.4035926 -3.021733 -0.2562485
-2.960963 -0.18081193 1.8465003 0.06224473 1.5965196 0.07827477 -3.2638621 -0.35757977
0.78279746 -4.794689 1.8195559 0.0349053 -3.2919745 -0.39313126 1.8416935 0.066499144
-3.0486846 -0.2101931 1.4849749 0.13779345 1.8481232 0.053345155 1.8361042 0.07148134
-2.8558888 -0.33454576 -0.90549153 -4.2452445 -3.3138113 -0.5475846 -3.0670211 0.044331253
-2.8285437 -0.02956044 1.8420277 0.073371515 -2.8952234 -0.97674394 1.8570688 0.06231381
-2.7838387 -1.2201971 0.8178943 -4.9486027 -3.3130085 -0.87807995 1.4816568 0.06356814
-1.5073274 4.119688 -2.8255727 -0.8961821 0.4683836 6.490876 1.8025835 0.07498909
1.85711 0.042742122 -1.276355 4.0156507 -3.1851768 -1.2668209 1.5038671 0.05157011
-3.2009273 -1.13617 1.8258915 0.06482388 -3.010612 0.033041693 -2.9361262 -0.20205241
-2.8879113 -0.05403767 -2.7149634 -0.85609937 -3.0343149 -0.21791074 1.7706801 0.057750054
1.7486964 0.03957391 -3.123559 -0.037782274 -1.1501157 -4.0878468 1.4795548 -5.4205523
-3.2478023 0.09617303 -3.149853 -3.0939362 -2.870467 -1.314207 1.7192659 0.055535864
-3.2664194 -0.618085 -3.514992 -0.76915485 0.09841622 4.7196755 -2.9747684 -1.2814755
-2.5476084 -2.8737388 -2.7276762 -0.18210562 1.7924672 0.07474551 -2.8706315 -0.8897427
00000000: 3d59 a83f 2505 c83d 3f94 3dbe fe1d a540
00000010: 61b4 4bc0 8a4d 6c40 cfa8 03c0 83a8 76c0
00000020: db77 39c0 38bf 98bd 3bfa d13f 19a8 243d
00000030: fbf1 cbbe 3bea 8c40 1364 41c0 0133 83be
00000040: 6b80 3dc0 c326 39be 1f5a ec3f 54f4 7e3d
00000050: c15a cc3f 864e a03d 1ee3 50c0 b214 b7be
00000060: 6a65 483f 186e 99c0 35e7 e83f dcf8 0e3d
00000070: b6af 52c0 8048 c9be 9dbc eb3f b430 883d
00000080: a61d 43c0 dc3c 57be a813 be3f ba19 0d3e
00000090: 4d8f ec3f 7380 5a3d 7605 eb3f cf64 923d
000000a0: e2c6 36c0 9549 abbe 4bce 67bf 0bd9 87c0
000000b0: 7c15 54c0 812e 0cbf 134a 44c0 b094 353d
000000c0: dc06 35c0 bc28 f2bc 90c7 eb3f ce43 963d
000000d0: 574b 39c0 e40b 7abf 6eb4 ed3f c43c 7f3d
000000e0: 6a2a 32c0 6b2f 9cbf 8561 513f f45a 9ec0
000000f0: 5508 54c0 d9c9 60bf eea6 bd3f 0330 823d
00000100: 1bf0 c0bf 7cd4 8340 2fd6 34c0 316c 65bf
00000110: facf ef3e 42b5 cf40 0ebb e63f e193 993d
00000120: c8b5 ed3f 5d12 2f3d 9a5f a3bf 3680 8040
00000130: f0d9 4bc0 3027 a2bf b87e c03f 2e3b 533d
00000140: fedb 4cc0 056e 91bf d0b6 e93f 62c2 843d
00000150: dead 40c0 ba56 073d 7ee9 3bc0 d4e6 4ebe
00000160: 8ad3 38c0 9b56 5dbd f6c1 2dc0 5429 5bbf
00000170: 3732 42c0 fe23 5fbe a5a5 e23f 528b 6c3d
00000180: 49d5 df3f 4118 223d 64e8 47c0 96c1 1abd
00000190: fe36 93bf a4cf 82c0 0d62 bd3f 2a75 adc0
000001a0: fedb 4fc0 5ef6 c43d 3197 49c0 0d03 46c0
000001b0: bbb5 37c0 ef37 a8bf e810 dc3f 9379 633d
000001c0: 040d 51c0 d23a 1ebf a1f5 60c0 55e7 44bf
000001d0: 718e c93d 9507 9740 9b62 3ec0 6407 a4bf
000001e0: 040c 23c0 56eb 37c0 3f92 2ec0 e579 3abe
000001f0: 916f e53f 2d14 993d 6db8 37c0 2dc6 63bf

hidden_layer1.bias f4 [64]
1.6820743 0.46266675 -0.2165792 3.7854617 -0.54375756 2.475373 0.13426757 -0.2513819
-0.39833686 1.9380515 1.0988055 -0.5590625 5.087498 2.385702 -0.25830656 2.0291884
-0.33875242 1.0430061 1.7251796 1.4707831 -0.15965462 4.318725 -0.21519013 -0.42278337
-0.73280126 2.1093152 0.6870406 1.9220512 0.06689515 5.295187 0.017843321 2.035098
0.019053979 0.75376487 0.72682416 1.8715732 2.1031795 0.047892403 0.52018744 2.2560406
0.061062165 1.6951078 -0.5418796 -0.34056154 -0.55658174 0.61364096 -0.47280154 1.9582827
2.187625 -0.3985306 4.239036 5.792009 -0.4930521 2.8206756 1.3483728 1.7598433
-0.22836639 -0.027359026 0.18370661 1.2849337 3.0040228 -0.31416774 1.9104747 0.82833815
00000000: 364e d73f a8e2 ec3e f0c6 5dbe 0145 7240
00000010: b233 0bbf 836c 1e40 707d 093e 21b5 80be
00000020: cff2 cbbe 1212 f83f a9a5 8c3f b81e 0fbf
00000030: c9cc a240 57af 1840 c240 84be 39de 0140
00000040: f570 adbe 3981 853f afd2 dc3f 9f42 bc3f
00000050: 807c 23be ff32 8a40 cd5a 5cbe 1077 d8be
00000060: dd98 3bbf 05ff 0640 e5e1 2f3f c605 f63f
00000070: 5300 893d 2c72 a940 282c 923c 0c3f 0240
00000080: 1717 9c3c bcf6 403f 2611 3a3f b68f ef3f
00000090: 7e9a 0640 d32a 443d 012b 053f f862 1040
000000a0: 521c 7a3d 4bf9 d83f 9fb8 0abf 155e aebe
000000b0: 247c 0ebf 9317 1d3f 0b13 f2be 02a9 fa3f
000000c0: 0c02 0c40 340c ccbe 2fa6 8740 2358 b940
000000d0: 5371 fcbe f385 3440 7b97 ac3f 8c42 e13f
000000e0: e1d8 69be 0920 e0bc 961d 3c3e b578 a43f
000000f0: e941 4040 98da a0be 6f8a f43f f80d 543f

hidden_layer2.weight f4 [64, 64]
-0.31303298 0.56686246 1.0373522 0.25453603 0.4848909 -0.59563655 0.959515 0.42386973
0.5207087 -0.5179947 -0.34469265 0.16912982 0.53764975 -0.6272545 0.41141984 -0.8205676
0.3964777 -0.49169546 -0.6451638 -0.44466695 0.42191207 0.41184032 0.12537526 0.6608986
0.69963527 -0.8274659 -0.21777889 -0.55489784 -0.10771716 0.56404465 0.0360023 -0.50308245
0.7211646 0.1055517 0.76660705 -0.6960236 -0.6558185 0.825581 -0.19632863 -0.5481376
-0.11427304 -0.5988535 0.65536845 0.5608206 0.6011035 -0.1094058 0.14943548 -0.48321694
-0.4273614 0.51674694 0.16099785 0.7570641 0.47158572 0.079101056 0.11979174 -0.3594582
-0.050773144 0.08969038 1.0131993 0.10768648 0.12785895 0.63130575 -0.7788107 0.13645385
-0.6952099 0.2532628 1.0633128 0.41001746 0.916062 -0.82585454 1.1376572 0.89760584
0.93286246 -0.85800636 -0.49374914 0.48108 0.65156245 -0.67921495 0.57155645 -0.77440614
0.71234775 -0.6575916 -0.67773044 -0.8158523 0.9443092 0.7684971 0.33682764 1.1017646
0.89013195 -0.85057044 -0.3445823 -0.84524673 -0.020133536 0.51979655 0.38779527 -0.7485601
0.91369945 -0.11585269 0.26272744 -0.7673806 -0.80081964 1.0558851 -0.25659457 -0.7168849
0.029998485 -0.8155144 0.9991802 0.840091 1.0489564 -0.021989169 0.596138 -0.67882174
-0.7392597 0.98261213 0.21424201 0.6431336 0.7677519 0.4604124 0.3264676 -0.8308814
0.28207603 0.29476377 1.0514412 -0.08124112 -0.14872223 0.97636956 -0.93630236 0.027485002
-0.32502934 1.3908709 1.0236973 1.1658874 1.1509067 -0.8911389 1.4481105 0.7923185
0.836967 -1.2058285 -0.35706273 1.1100901 1.5581677 -1.0273429 1.1523182 -1.447813
0.8601969 -0.37540114 -0.97084457 -1.0631354 1.346012 1.4422201 1.2322761 0.71163666
1.2421515 -1.4522631 1.1154544 -1.0634941 1.1908684 1.8076372 1.2239106 -0.49883497
0.9961104 1.290918 1.3912174 -1.2165018 -1.0202687 1.3076471 1.0627428 -0.6757126
1.2693032 -1.102802 0.8576132 0.7711755 0.8808952 1.0574727 1.1860137 -1.0642202
-1.0504731 0.6164095 1.3187495 1.8785894 0.4407848 1.0809579 1.3305775 -0.86517644
1.2163798 1.0409889 1.3719885 1.1153486 1.1238853 1.1940391 -1.2621723 1.3350016
-0.34963664 0.5810995 0.59624064 0.2847036 0.20180938 -0.43566722 0.812673 0.13573223
0.22156459 -0.6735868 -0.21386495 0.21836698 0.4615737 -0.5531692 0.14218502 -0.75487983
0.2058539 -0.22058797 -0.47984987 -0.4535796 0.4323298 0.3888169 0.11169778 0.19922358
0.29549548 -0.8521565 0.13944282 -0.59559005 0.054285962 0.62807196 0.20086168 -0.27870578
0.46393803 0.23657519 1.0888668 -0.6584499 -0.5255759 0.57497674 0.15103112 -0.33367538
0.14449258 -0.5543794 0.20257783 0.29646823 0.38321233 0.28723466 0.39307195 -0.3512568
-0.5413692 0.13073365 0.4003353 0.80207 0.11937887 0.28653702 0.25848636 -0.3074057
0.23755798 0.021581376 0.80635333 0.25169218 0.22944283 0.32955116 -0.7573164 0.19129895
00000000: dc45 a0be e61d 113f f5c7 843f 8c52 823e
00000010: 9f43 f83e a37b 18bf c6a2 753f 7405 d93e
00000020: 2a4d 053f 4d9b 04bf 8e7b b0be 5e30 2d3e
00000030: 6aa3 093f c093 20bf 9fa5 d23e b810 52bf
00000040: 20ff ca3e 82bf fbbe 7429 25bf 63ab e3be
00000050: dc04 d83e bcdc d23e 5f62 003e a730 293f
00000060: 4c1b 333f ced4 53bf 6e01 5fbe c90d 0ebf
00000070: d09a dcbd 3b65 103f 2677 133d 03ca 00bf
00000080: 3e9e 383f 7d2b d83d 5c40 443f 9a2e 32bf
00000090: b9e3 27bf 4759 533f 5f0a 49be bf52 0cbf
000000a0: fc07 eabd 774e 19bf 3ac6 273f f091 0f3f
000000b0: ebe1 193f 2610 e0bd 9d05 193e 3668 f7be
000000c0: 1dcf dabe 8749 043f 9fdc 243e f4ce 413f
000000d0: af73 f13e bcff a13d 5f55 f53d e80a b8be
000000e0: 80f7 4fbd 97af b73d 84b0 813f bb8a dc3d
000000f0: 75ed 023e 419d 213f 2360 47bf 8fba 0b3e
00000100: 47f9 31bf a9ab 813e a21a 883f cfed d13e
00000110: 0a83 6a3f 346b 53bf c09e 913f 7fc9 653f
00000120: 13d0 6e3f 4ea6 5bbf b0cc fcbe 1e50 f63e
00000130: cccc 263f 08e1 2dbf 8651 123f 7b3f 46bf
00000140: 6c5c 363f ec57 28bf be7f 2dbf b2db 50bf
00000150: 3fbe 713f 3abc 443f ac74 ac3e 9f06 8d3f
00000160: b0df 633f fcbe 59bf 176d b0be 1762 58bf
00000170: 16ef a4bc 6311 053f 1a8d c63e a2a1 3fbf
00000180: 35e8 693f 2d44 edbd 3684 863e 0e73 44bf
00000190: 8402 4dbf 3e27 873f 5d60 83be c585 37bf
000001a0: 62bf f53c 8dc5 50bf 46ca 7f3f 3410 573f
000001b0: 3444 863f a122 b4bc 809c 183f 43c7 2dbf
000001c0: 2040 3dbf 788c 7b3f 4262 5b3e 67a4 243f
000001d0: 638b 443f 2dbb eb3e c326 a73e a5b4 54bf
000001e0: 456c 903e 47eb 963e a095 863f bf61 a6bd
000001f0: a44a 18be 5bf3 793f 83b1 6fbf 3a28 e13c
00000200: 3f6a a6be 0f08 b23f 8308 833f cc3b 953f
00000210: e950 933f ae21 64bf af5b b93f 63d5 4a3f
00000220: 7843 563f 9758 9abf edd0 b6be 6f17 8e3f
00000230: 0a72 c73f f97f 83bf 2a7f 933f f051 b9bf
00000240: dd35 5c3f 9434 c0be 4589 78bf d214 88bf
00000250: 1f4a ac3f ab9a b83f 39bb 9d3f d22d 363f
00000260: d2fe 9e3f c2e3 b9bf 36c7 8e3f 9320 88bf
00000270: 606e 983f a860 e73f 1aa9 9c3f 4c67 ffbe
00000280: 1701 7f3f cd3c a53f 6913 b23f 55b6 9bbf
00000290: 2a98 82bf fb60 a73f f507 883f 80fb 2cbf
000002a0: 8778 a23f 9e28 8dbf 8a8c 5b3f c26b 453f
000002b0: 5982 613f 445b 873f 4ccf 973f 5e38 88bf
000002c0: e775 86bf 03cd 1d3f c9cc a83f 9e75 f03f
000002d0: 8cae e13e d45c 8a3f 5d50 aa3f 347c 5dbf
000002e0: 55b2 9b3f 203f 853f 529d af3f bec3 8e3f
000002f0: 79db 8f3f 46d6 983f dd8e a1bf 55e1 aa3f
00000300: 9303 b3be f0c2 143f 3aa3 183f acc4 913e
00000310: 1ea7 4e3e c60f dfbe 560b 503f 64fd 0a3e
00000320: d4e1 623e 2f70 2cbf 6aff 5abe 989b 5f3e
00000330: 6353 ec3e 7f9c 0dbf f398 113e ce3f 41bf
00000340: 5dcb 523e d0e1 61be e2ae f5be 963b e8be
00000350: 555a dd3e 0213 c73e cec1 e43d 4401 4c3e
00000360: 2f4b 973e ee26 5abf 19ca 0e3e 9778 18bf
00000370: f55a 5e3d 53c9 203f afae 4d3e 86b2 8ebe
00000380: 4989 ed3e c440 723e fd5f 8b3f 2c90 28bf
00000390: 248c 06bf ad31 133f e7a7 1a3e 80d7 aabe
000003a0: ddf5 133e cfeb 0dbf 9070 4f3e afca 973e
000003b0: 6834 c43e 6c10 933e ba40 c93e eed7 b3be
000003c0: 2c97 0abf 0bdf 053e c0f8 cc3e 7654 4d3f
000003d0: e97c f43d fbb4 923e 5358 843e 4864 9dbe
000003e0: 6642 733e 6dcb b03c 2c6d 4e3f ccdd 803e
000003f0: 10f3 6a3e eeba a83e 7ddf 41bf dfe3 433e

hidden_layer2.bias f4 [64]
-0.43071228 -0.5587533 -0.6691553 -0.41846532 -0.33374956 0.35231692 -0.4145393 0.4008844
-0.39249706 -0.58748627 -0.87657344 -0.36121553 -0.66523993 -0.6254329 0.24594359 -0.5820444
-0.4804476 -0.4620416 -0.5359852 -0.37055168 -0.6209852 -0.8968478 -0.5200069 -0.7437955
0.4668154 -0.6579799 -0.40572026 0.49637628 -0.68549687 -0.43898654 -0.52072173 -0.5465886
0.6620966 -0.6585314 -0.52558166 -0.47185123 -1.0781224 -0.8771276 0.22753188 -0.3315228
-0.9207849 -0.4872131 -0.52281195 -0.48916548 -0.45664185 -0.53841656 -0.6172827 -0.54126644
-0.5144383 -0.6672057 -0.41608062 -0.4697531 -0.6241141 -0.5089865 -0.5182294 -0.5379418
-0.6207898 -0.6008788 0.4595552 -0.63236827 -0.43810847 -0.57585686 -0.53078365 -0.44894594
00000000: 5286 dcbe 750a 0fbf c34d 2bbf 1641 d6be
00000010: 39e1 aabe e262 b43e 7f3e d4be b840 cd3e
00000020: 60f5 c8be 8065 16bf 1e67 60bf 3ef1 b8be
00000030: 2a4d 2abf 5f1c 20bf a3d8 7b3e dd00 15bf
00000040: 3afd f5be b790 ecbe 5336 09bf f3b8 bdbe
00000050: e3f8 1ebf d197 65bf 2c1f 05bf 6269 3ebf
00000060: 6e02 ef3e 5f71 28bf 91ba cfbe 0825 fe3e
00000070: b97c 2fbf d8c2 e0be 054e 05bf 3bed 0bbf
00000080: 2a7f 293f 8495 28bf 858c 06bf 7c96 f1be
00000090: eaff 89bf 6f8b 60bf 1efe 683e 5bbd a9be
000000a0: 8fb8 6bbf ff73 f9be 01d7 05bf e673 fabe
000000b0: f6cc e9be abd5 09bf 3d06 1ebf 7090 0abf
000000c0: 3ab2 03bf fecd 2abf 8508 d5be 7a83 f0be
000000d0: f1c5 1fbf f04c 02bf afaa 04bf 8eb6 09bf
000000e0: 15ec 1ebf 31d3 19bf d24a eb3e e3e2 21bf
000000f0: c14f e0be 5b6b 13bf 70e1 07bf 3edc e5be

output_layer.weight f4 [1, 64]
2.277629 1.9934424 1.6233907 2.1467576 2.7035036 -3.8387284 2.1851969 -3.6220748
2.2659564 1.8290647 2.050979 2.1952412 3.2775145 2.1925542 -3.5418887 2.2542582
2.131565 2.186628 2.185948 2.1273024 2.0931594 2.095709 2.3323321 1.6839027
-3.9357011 2.0333655 2.1773677 -3.5090764 2.55543 1.8501681 2.6926103 1.9378241
-4.0578666 2.3198285 2.1356087 1.5020759 2.1107104 1.9442489 -3.6303241 2.234233
2.0822153 2.1015806 2.5088673 2.457234 2.3052588 2.2094254 2.2055652 2.1154268
2.324422 2.1142094 2.0011835 2.191876 2.5366836 2.1559622 2.1783173 2.2141175
2.1155226 2.0610948 -3.7293139 1.7268938 2.2651238 2.1008482 1.786665 2.2467916
00000000: acc4 1140 1f29 ff3f 44cb cf3f 7a64 0940
00000010: 3406 2d40 baad 75c0 44da 0b40 13d0 67c0
00000020: 6e05 1140 cb1e ea3f 3d43 0340 d57e 0c40
00000030: ccc2 5140 cf52 0c40 4eae 62c0 c445 1040
00000040: 906b 0840 b7f1 0b40 92e6 0b40 b925 0840
00000050: 53f6 0540 1920 0640 ee44 1540 208a d73f
00000060: 87e2 7bc0 a922 0240 fe59 0b40 b594 60c0
00000070: 2a8c 2340 4fd2 ec3f ba53 2c40 9f0a f83f
00000080: 0bda 81c0 1278 1440 d0ad 0840 0644 c03f
00000090: e115 0740 26dd f83f 3b57 68c0 acfd 0e40
000000a0: 0443 0540 4c80 0640 4891 2040 5243 1d40
000000b0: 5c89 1340 3a67 0d40 fb27 0d40 2763 0740
000000c0: 54c3 1440 354f 0740 6413 0040 b247 0c40
000000d0: 0659 2240 49fb 0940 8d69 0b40 1ab4 0d40
000000e0: b964 0740 fae8 0340 14ad 6ec0 db0a dd3f
000000f0: caf7 1040 4c74 0640 70b1 e43f 6fcb 0f40
